LeNet.pth (torch, 250887 bytes, 10 tensors)

conv1.weight f4 [6, 3, 5, 5]
0.11883949 0.14845815 -0.08826655 0.08683827 0.034388684 0.06643024 0.19253002 0.084116854
0.18455866 0.19172983 -0.15206227 -0.006492657 0.10931516 0.014460738 0.11009483 -0.18621345
-0.106348604 -0.26340926 -0.1802955 -0.14020038 0.00969309 0.039088752 0.028983139 0.013611797
0.026171526 -0.16153239 0.080367245 0.008637184 -0.05271667 -0.20944642 0.010179032 0.21039127
0.14511539 -0.008161779 0.10552448 0.023119828 0.08329018 -0.007945965 -0.13014215 -0.091709785
-0.09749277 -0.24015662 -0.10567269 -0.14560544 -0.17325649 -0.056907177 0.08788093 0.093111776
-0.106198825 -0.032495193 0.052913405 -0.07943137 -0.21307325 -0.04516446 -0.004502935 -0.027183142
0.15449654 0.09527879 0.010419164 -0.035388593 -0.060261596 0.12920189 0.057145305 0.14582251
-0.009625578 -0.09724057 -0.14020877 -0.079031006 0.08385851 0.005955661 0.16611065 0.0029580528
-0.022312995 0.08995922 0.09651231 0.033065632 -0.093341716 0.19467008 0.057979826 -0.036130957
-0.09858621 -0.106385045 -0.12732288 -0.28779477 -0.13497403 -0.13472241 -0.087130606 -0.23567882
-0.1714199 0.12902902 0.0013186373 -0.008018543 0.06148653 0.15042844 0.17634298 0.111342296
0.24909699 0.16790113 0.03734819 0.08105909 0.1421288 0.01666362 0.1546208 -0.027918315
-0.029748566 -0.0028547964 0.17316805 0.022666045 -0.21898499 0.028575793 0.035711154 -0.16265689
-0.138265 -0.035272803 0.008288733 0.038316242 -0.009192636 0.14364497 0.22483984 0.14966527
-0.019423192 0.07543894 -0.050415106 0.09501677 -0.23780164 -0.039867558 -0.08255734 0.13965671
0.06740363 0.02071574 0.076324515 -0.0004419097 -0.1399273 -0.10274259 0.023022795 0.06442879
0.0039173667 -0.20535313 -0.060961787 0.14009227 -0.091393694 -0.073976696 0.099067 0.06267842
0.123116344 -0.050188113 0.006610548 0.10350063 0.038199242 -0.1813283 0.079171546 0.038622186
0.07741509 -0.0770717 0.051136058 -0.084345445 0.02122648 -0.11125747 -0.09885614 -0.07146732
-0.10113775 -0.045130286 -0.10845018 -0.021128608 -0.117503434 -0.02114234 -0.17963506 -0.17119877
-0.063157246 -0.17327818 -0.15094319 -0.18459268 -0.09624369 -0.0644719 -0.04734938 0.0773381
-0.106081106 0.046440694 0.050057355 -0.09395622 0.016423713 -0.13607147 -0.08092633 -0.022852164
0.04079006 0.11607019 -0.08868664 0.10131036 0.0045483615 0.074981965 0.14228599 -0.007269294
0.12659073 0.011085894 -0.0083191795 -0.079355665 -0.036114875 -0.05324772 0.1033238 -0.00986395
0.08594017 0.07718792 0.08222312 0.1491263 -0.043104526 0.008542863 -0.1268162 0.10280939
0.12324252 0.0457771 0.12537403 0.021735955 0.21373522 0.06825577 -0.03766986 0.12888688
0.16667682 0.17448772 0.16132239 -0.022352621 0.09145317 -0.031519286 0.10138686 0.1606753
-0.061847713 0.16573155 0.023360778 -0.04819382 -0.12442593 -0.083608136 0.18586875 0.23039968
-0.005642652 -0.1717304 -0.1355373 0.011244525 0.097485475 -0.06864445 0.0280065 -0.050080195
-0.058190227 0.01080496 -0.037107766 0.09742205 0.035001226 -0.048401427 -0.07554177 0.0671121
0.10401274 -0.054654654 0.15839407 0.0690727 -7.531853e-05 -0.09492072 -0.14149095 0.21597864
00000000: 1e62 f33d 6a05 183e 18c5 b4bd 43d8 b13d
00000010: 26db 0c3d 940c 883d 9726 453e 7545 ac3d
00000020: f2fc 3c3e d354 443e 36b6 1bbe 5bc0 d4bb
00000030: a0e0 df3d bbec 6c3c 6679 e13d bdae 3ebe
00000040: 4ccd d9bd 94dd 86be 629f 38be b090 0fbe
00000050: c4cf 1e3c 871b 203d 0c6e ed3c 0404 5f3c
00000060: ab65 d63c bf68 25be 9597 a43d fa82 0d3c
00000070: 6fed 57bd 1f79 56be f4c5 263c cf70 573e
00000080: 2199 143e fbb8 05bc 381d d83d cb65 bd3c
00000090: 0b94 aa3d cb2f 02bc fc43 05be 57d2 bbbd
000000a0: 4aaa c7bd 9eeb 75be ec6a d8bd 9819 15be
000000b0: 266a 31be 8017 69bd ebfa b33d 63b1 be3d
000000c0: c57e d9bd ae19 05bd babb 583d eaac a2bd
000000d0: e02f 5abe 5efe 38bd 5b8d 93bb 2eaf debc
000000e0: 5734 1e3e 8721 c33d 24b5 2a3c a1f3 10bd
000000f0: ddd4 76bd 804d 043e 3211 6a3d 7f52 153e
00000100: 9ab4 1dbc 1026 c7bd e392 0fbe 02db a1bd
00000110: 03be ab3d b527 c33b e918 2a3e e4db 413b
00000120: bec9 b6bc 8a3c b83d 3fa8 c53d d46f 073d
00000130: f129 bfbd 9857 473e 417c 6d3d 0efe 13bd
00000140: 91e7 c9bd 67e0 d9bd ee60 02be d659 93be
00000150: a236 0abe acf4 09be 8871 b2bd ca55 71be
00000160: b388 2fbe 2f20 043e 20d6 ac3a 3560 03bc
00000170: 4dd9 7b3d ea09 1a3e 4193 343e 6e07 e43d
00000180: 4813 7f3e 46ee 2b3e 6afa 183d 4f02 a63d
00000190: 368a 113e 2582 883c ea54 1e3e f3b4 e4bc
000001a0: 44b3 f3bc 8917 3bbb f752 313e 24ae b93c
000001b0: 9a3d 60be c817 ea3c dc45 123d 878f 26be
000001c0: 5795 0dbe 377a 10bd 77cd 073c 7ef1 1c3d
000001d0: b69c 16bc ab17 133e 6a3c 663e da41 193e
000001e0: 631d 9fbc bb7f 9a3d 1280 4ebd 2798 c23d
000001f0: 4682 73be 2a4c 23bd d313 a9bd 2b02 0f3e
00000200: ea0a 8a3d 0eb4 a93c 0750 9c3d 1eb0 e7b9
00000210: 1a49 0fbe b56a d2bd 4d9a bc3c 3ef3 833d
00000220: 415d 803b 1748 52be 11b3 79bd 5974 0f3e
00000230: 9e2c bbbd 1881 97bd a4e3 ca3d 8b5d 803d
00000240: 6c24 fc3d 0d92 4dbd 4c9d d83b 23f8 d33d
00000250: cf76 1c3d 20ae 39be b124 a23d 4c32 1e3d
00000260: cd8b 9e3d c4d7 9dbd 0b74 513d 4ebd acbd
00000270: 28e3 ad3c f5da e3bd 1775 cabd 755d 92bd
00000280: 4f21 cfbd 89da 38bd 211b debd e715 adbc
00000290: a4a5 f0bd b332 adbc 41f2 37be bb4e 2fbe
000002a0: 9658 81bd d66f 31be da90 1abe dd05 3dbe
000002b0: 691b c5bd d809 84bd 6cf1 41bd 7063 9e3d
000002c0: 0d41 d9bd 9938 3e3d f108 4d3d 1e6c c0bd
000002d0: 068b 863c 5256 0bbe b4bc a5bd 7634 bbbc
000002e0: 7a13 273d 35b6 ed3d 57a1 b5bd ce7b cf3d
000002f0: 6c0a 953b 2590 993d 6bb3 113e 4233 eebb
00000300: 00a1 013e 9ca1 353c 2b4d 08bc 3985 a2bd
00000310: 31ed 13bd 481a 5abd 6e9b d33d 689c 21bc
00000320: 6601 b03d b314 9e3d 9864 a83d 91b4 183e
00000330: 5f8e 30bd 5df7 0b3c 1bdc 01be bb8d d23d
00000340: 9366 fc3d c580 3b3d 0d62 003e 9a0f b23c
00000350: 68dd 5a3e aec9 8b3d b64b 1abd ecfa 033e
00000360: 54ad 2a3e e9ac 323e b231 253e d81c b7bc
00000370: cd4b bb3d 5e1a 01bd eaa3 cf3d 1188 243e
00000380: 0754 7dbd 88b5 293e 1a5f bf3c e266 45bd
00000390: 06d3 febd be3a abbd 6154 3e3e e5ed 6b3e
000003a0: ffe5 b8bb 18da 2fbe 4aca 0abe f53a 383c
000003b0: 77a6 c73d 7695 8cbd e36d e53c e420 4dbd
000003c0: e058 6ebd 4907 313c 50fe 17bd 3685 c73d
000003d0: 725d 0f3d 9340 46bd a5b5 9abd 1272 893d
000003e0: a204 d53d 8fdd 5fbd 0e32 223e fd75 8d3d
000003f0: 54f4 9db8 cb65 c2bd 01e3 10be 8129 5d3e

conv1.bias f4 [6]
-0.12291957 -0.027139366 0.120730445 -0.04779577 -0.057717856 0.03879468
00000000: 41bd fbbd 6053 debc 8641 f73d 7fc5 43bd
00000010: 8f69 6cbd 2ce7 1e3d

conv2.weight f4 [16, 6, 5, 5]
0.044676427 0.047804825 0.08564181 0.034992084 0.03875467 0.08218454 -0.0075937356 0.017698301
0.112911 0.08692005 -0.0063160104 0.09966866 0.098166 0.050426133 0.073274724 -0.004955265
-0.030562863 -0.13530266 -0.013136848 0.0020567905 -0.019377338 0.038729005 -0.082570694 -0.055631913
-0.07081382 0.106528156 0.08340996 -0.022201013 0.025153898 0.12754318 0.098265335 0.115160815
0.14000075 0.16496365 0.126798 0.08174111 0.07925064 0.13097161 0.1545262 0.0478821
-0.030046921 -0.13324675 -0.22054854 -0.04598155 -0.07977853 -0.3157153 -0.23084363 -0.36507773
-0.22354876 -0.21210957 0.09064838 0.014906619 0.15923527 0.07951569 0.13810223 -0.034282777
-0.006667559 0.015749136 0.08996094 -0.05699273 -0.08710751 -0.07481131 -0.023886148 -0.084897846
-0.101294085 -0.023964774 -0.10334907 -0.09627697 -0.10931743 -0.05348576 0.04511057 0.048692208
0.021269333 0.02777994 0.057450507 0.14795546 0.031020192 0.008752379 0.07763571 0.02717679
0.07232624 -0.03710636 0.004267809 0.058019277 0.04026056 0.06312804 0.060353354 0.076760255
0.08747406 0.04686131 -0.045628913 -0.03704269 0.06149377 0.041228168 0.055138215 -0.12895527
-0.17787674 -0.21813592 -0.19591999 -0.14211386 0.22561856 0.18508692 0.03774557 0.1358225
0.1408796 -0.007242486 0.08891092 0.09181673 -0.059960235 0.033805363 -0.21183123 -0.17539571
-0.122948155 -0.108742185 -0.15072003 -0.26223716 -0.37492725 -0.4036187 -0.53496265 -0.3550727
-0.2558295 -0.49766356 -0.63595605 -0.6772851 -0.42759904 -0.08040503 0.0071113924 0.039755046
-0.0046459823 0.12507692 0.11233812 0.10005219 0.056803968 -0.03159153 -0.01447068 0.06098138
0.031025236 0.02130742 0.07490657 -0.0031984209 -0.01281334 -0.07474882 -0.046922117 -0.05533906
0.05275258 -0.027129628 -0.05327415 -0.069994785 -0.106884085 -0.0007162715 0.049996495 -0.0010331403
-0.04708139 -0.079599105 0.032861397 -0.024183871 -0.12040755 -0.08233865 -0.015705237 0.06274893
-0.024521705 -0.10352184 -0.20306066 -0.102076866 0.14113766 -0.093919575 0.06993673 0.0082783485
0.07663387 0.16965425 0.03933912 0.05541826 0.033522245 0.067038685 0.10702133 -0.026704606
-0.024222195 0.11032645 0.14996815 0.2582597 0.17120153 0.110788465 0.18929073 0.06939248
0.12114046 0.08925973 0.038574763 0.049850494 0.11773387 0.1979982 0.09926908 0.106190935
0.05623607 0.014218488 0.17777677 0.041541364 0.077763796 0.038062308 0.074461415 0.16084994
0.10746387 0.07989588 -0.027671784 0.07071 0.081673674 0.021126425 0.04461437 0.00039170054
-0.04143489 -0.00017214724 0.068040006 -0.015996855 -0.049651545 -0.14288338 -0.037316598 0.07537702
-0.06827647 -0.17755109 -0.19198534 -0.08714031 0.09211648 -0.029758655 -0.05456147 0.041515764
-0.02109173 -0.08823066 -0.097357444 -0.022430997 -0.022167344 -0.23475263 -0.102986656 0.036191322
-0.081004374 -0.17367819 -0.033120506 0.053603426 -0.13462554 -0.14077803 -0.08841237 -0.09098389
0.028493479 -0.06331633 -0.038295086 -0.038012665 0.08312944 -0.022800606 -0.034464203 0.07584796
-0.0018594097 0.08986204 -0.2555766 -0.35477215 -0.257335 -0.17902707 -0.251365 -0.22380705
00000000: a1fe 363d fece 433d f964 af3d dc53 0f3d
00000010: 38bd 1e3d 5e50 a83d dfd4 f8bb 07fc 903c
00000020: e23d e73d 2403 b23d 89f6 cebb 151f cc3d
00000030: 410b c93d a28b 4e3d 0f11 963d c75f a2bb
00000040: f85e fabc c88c 0abe ef3b 57bc 38cb 063b
00000050: 39bd 9ebc 4ea2 1e3d d31a a9bd 4ade 63bd
00000060: d606 91bd 6f2b da3d d7d2 aa3d e6de b5bc
00000070: 8c0f ce3c ae9a 023e 563f c93d 6fd9 eb3d
00000080: 5b5c 0f3e 3bec 283e 56d7 013e e267 a73d
00000090: 294e a23d 6c1d 063e 1e3c 1e3e 0520 443d
000000a0: f624 f6bc d671 08be 7ad7 61be 2657 3cbd
000000b0: ed62 a3bd 70a5 a1be 4662 6cbe 78eb babe
000000c0: f7e9 64be 4033 59be dca5 b93d e43a 743c
000000d0: 920e 233e 1fd9 a23d ac6a 0d3e 196c 0cbd
000000e0: 8a7b dabb 5504 813c 713d b83d 3571 69bd
000000f0: 6c65 b2bd ac36 99bd e2ac c3bc ecde adbd
00000100: 4673 cfbd c651 c4bc ada8 d3bd dc2c c5bd
00000110: d1e1 dfbd e213 5bbd dcc5 383d 7b71 473d
00000120: 063d ae3c c292 e33c 3951 6b3d a381 173e
00000130: 0f1e fe3c 2366 0f3c 79ff 9e3d dca1 de3c
00000140: c81f 943d d7fc 17bd fad8 8b3b 9fa5 6d3d
00000150: 42e8 243d 4649 813d 1435 773d 7b34 9d3d
00000160: 9a25 b33d a5f1 3f3d 62e5 3abd 13ba 17bd
00000170: e4e0 7b3d dede 283d 9cd8 613d da0c 04be
00000180: 5225 36be 065f 5fbe 409f 48be 4c86 11be
00000190: 8d08 673e 6d87 3d3e 199b 1a3d 0e15 0b3e
000001a0: be42 103e 6052 edbb ee16 b63d 690a bc3d
000001b0: dd98 75bd 7e77 0a3d 49ea 58be ef9a 33be
000001c0: 3ecc fbbd 39b4 debd 5a56 1abe f343 86be
000001d0: 77f6 bfbe 1ca7 cebe 50f3 08bf 17cc b5be
000001e0: 16fc 82be c2cd febe 04ce 22bf 8e62 2dbf
000001f0: 43ee dabe 64ab a4bd af06 e93b 30d6 223d
00000200: 533d 98bb 2a14 003e 8711 e63d 2ae8 cc3d
00000210: 47ab 683d 1f66 01bd 6e16 6dbc 9dc7 793d
00000220: a328 fe3c e68c ae3c 9e68 993d 999c 51bb
00000230: 0bef 51bc e915 99bd 6831 40bd 36ab 62bd
00000240: 1713 583d f43e debc ff35 5abd 6d59 8fbd
00000250: 0be6 dabd 2bc4 3bba 20c9 4c3d 706a 87ba
00000260: 6ad8 40bd db04 a3bd ac99 063d 411d c6bc
00000270: 3c98 f6bd 2ba1 a8bd 45a8 80bc 8382 803d
00000280: bee1 c8bc 4203 d4bd 22ef 4fbe ad0d d1bd
00000290: 6486 103e e858 c0bd fd3a 8f3d e9a1 073c
000002a0: 38f2 9c3d d8b9 2d3e 0f22 213d 42fe 623d
000002b0: 9f4e 093d 944b 893d 002e db3d 9ec3 dabc
000002c0: a06d c6bc d5f2 e13d 4091 193e 9e3a 843e
000002d0: 744f 2f3e 10e5 e23d 6ed5 413e a51d 8e3d
000002e0: 7d18 f83d cecd b63d 9200 1e3d 0830 4c3d
000002f0: 751e f13d 0ac0 4a3e 964d cb3d a27a d93d
00000300: cb57 663d a9f4 683c 1d0b 363e 4727 2a3d
00000310: a042 9f3d 39e7 1b3d 3a7f 983d d9b5 243e
00000320: 0416 dc3d 73a0 a33d f0af e2bc 68d0 903d
00000330: 8744 a73d 5311 ad3c 8fbd 363d 285d cd39
00000340: a2b7 29bd 6c82 34b9 8f58 8b3d d60b 83bc
00000350: 6b5f 4bbd 0550 12be 4ad9 18bd 445f 9a3d
00000360: 89d4 8bbd f4cf 35be ce97 44be 9e76 b2bd
00000370: 91a7 bc3d 6cc8 f3bc d97b 5fbd 6f0c 2a3d
00000380: 90c8 acbc 47b2 b4bd 5763 c7bd 36c1 b7bc
00000390: 4a98 b5bc fe62 70be abea d2bd 5a3d 143d
000003a0: 9fe5 a5bd b2d8 31be 5ea9 07bd 448f 5b3d
000003b0: 47db 09be 1e28 10be 8b11 b5bd c355 babd
000003c0: 286b e93c feab 81bd 4fdb 1cbd 2bb3 1bbd
000003d0: c53f aa3d 56c8 babc 562a 0dbd 2d56 9b3d
000003e0: 70b7 f3ba 9709 b83d f0da 82be b2a4 b5be
000003f0: 6ac1 83be df52 37be eab2 80be ad2d 65be

conv2.bias f4 [16]
0.22657946 0.17769834 0.11169371 0.18820247 -0.17658259 -0.036643334 -0.041069344 -0.018986315
0.012561535 -0.0029381406 0.20589392 0.07014949 -0.2618571 -0.20032941 0.21445711 0.2487401
00000000: 7204 683e 8ef6 353e acbf e43d 26b8 403e
00000010: 11d2 34be 5217 16bd 5438 28bd 3089 9bbc
00000020: e6ce 4d3c d28d 40bb dbd5 523e 89aa 8f3d
00000030: 2212 86be 2723 4dbe a59a 5b3e bab5 7e3e

fc1.weight f4 [120, 400]
-0.13163944 -0.1549648 -0.09191714 -0.10342544 -0.059624568 -0.18670084 -0.06427659 -0.060430404
0.021729251 0.015852684 -0.09905426 0.08848365 0.04616955 0.04433976 -0.08650783 0.07208691
0.061994556 -0.06601766 0.059439164 0.034987886 -0.003987147 0.107870005 -0.19555405 -0.025215134
0.075543724 -0.053122427 0.123771645 0.11077707 0.058670733 -0.11522787 -0.07546919 0.11206826
0.1189358 0.07178517 -0.090911455 -0.0025900197 0.13597727 0.13595286 0.071486935 -0.013682468
-0.064870805 0.1265973 0.11320893 0.19303523 0.16230862 0.12553199 -0.041278943 -0.07318772
0.12034403 0.21353573 0.16340666 -0.09196036 -0.116783045 -0.054482482 -0.0060874647 0.21278104
0.0137126725 -0.059473105 0.0020310276 -0.020982984 0.19761506 -0.08945644 -0.10991001 -0.035925362
0.014739677 0.115121976 -0.02106816 -0.052987702 0.10216244 -0.058421124 0.009273729 -0.10899222
0.046969477 0.05244225 -0.07906952 0.09822929 0.03619941 0.0699813 0.031874605 0.008112688
0.13751899 0.07214203 -0.013947766 0.039342552 0.06271657 0.11115746 0.112475246 -0.028379383
0.05329487 -0.032542642 0.058689162 0.0055479323 -0.05057689 0.06941289 -0.12420329 -0.032144148
0.023767367 -0.06838478 -0.10252658 0.06277207 -0.22113588 -0.010852542 0.02813865 0.02428395
-0.22437713 -0.055349436 0.020812023 0.028504727 -0.08297994 -0.1507887 0.12617967 0.18901229
0.086966746 -0.042456497 -0.0037926142 0.15671842 0.18774611 0.074286535 0.03379875 0.10560689
-0.10801205 0.0052906703 -0.021642745 0.003922762 0.13871856 0.035550065 0.065832615 0.12685741
-0.0021893142 -0.21693172 -0.07882644 0.04011138 0.07565091 -0.047877472 -0.016505806 0.10580131
0.074469656 -0.026090307 0.025160633 0.0031213318 0.173755 0.032925636 -0.06986614 0.0051157447
0.12636425 0.30322146 0.024735766 -0.09061201 -0.047064863 0.14604406 -0.1285114 0.0288349
-0.08242902 -0.02375187 -0.10684202 0.011837199 0.11077485 0.08394064 -0.05974233 -0.11995692
-0.03771673 0.08293319 0.06852375 -0.078546435 -0.09342347 0.021107953 0.16450228 0.02884442
-0.17061417 -0.20583323 0.02475615 0.13944839 0.037914503 -0.14841348 -0.24653348 -0.1838222
-0.019822707 0.12510805 0.060363367 -0.29278454 -0.028620591 0.00077431207 0.102288015 0.16672014
-0.111836426 0.17764443 0.14595068 0.061208505 0.10846966 0.14595328 0.17285223 0.070124686
0.11248218 0.035477348 0.112837 -0.22156563 -0.09399461 0.06839863 -0.08545878 -0.023566782
-0.06065031 -0.08627376 -0.15599945 -0.2472141 -0.29233128 -0.07257666 0.028934106 -0.024759341
-0.085364886 -0.24146162 0.021428807 0.09099336 0.10619264 0.071037754 -0.0006020883 0.03216907
0.11105951 -0.00996527 -0.113050446 -0.03050334 0.0030607816 -0.009404515 0.039507296 -0.0042945747
0.0495475 0.038179617 0.04578217 0.085652515 0.05225908 0.17894958 0.1996005 0.2125608
0.061369147 -0.09928046 0.11111323 0.109758325 0.17023869 0.1838288 -0.0020904993 -0.0029828297
-0.049473 0.0059214924 -0.0011208585 -0.14258872 -0.024199123 0.029574046 0.033989783 -0.15711378
-0.27856994 -0.1649461 0.043282684 0.081315786 0.06881691 -0.14324199 -0.036420863 0.022066707
00000000: 7dcc 06be 18af 1ebe 0e3f bcbd b8d0 d3bd
00000010: e438 74bd 812e 3fbe 72a3 83bd df85 77bd
00000020: 8b01 b23c 7ddd 813c f6dc cabd ea36 b53d
00000030: 481c 3d3d 9c9d 353d 042b b1bd 4da2 933d
00000040: 01ee 7d3d 4434 87bd 7b76 733d 754f 0f3d
00000050: 9da6 82bb f3ea dc3d 523f 48be f88f cebc
00000060: abb6 9a3d e796 59bd fd7b fd3d 17df e23d
00000070: b950 703d 97fc ebbd 978f 9abd 0b84 e53d
00000080: 9d94 f33d 1a04 933d c92f babd 52bd 29bb
00000090: a03d 0b3e 3a37 0b3e be67 923d 6e2c 60bc
000000a0: fcda 84bd b9a2 013e 15da e73d 07ab 453e
000000b0: 3b34 263e 758b 003e 1c14 29bd 71e3 95bd
000000c0: ee76 f63d 1ca9 5a3e 1354 273e b755 bcbd
000000d0: f32b efbd 0629 5fbd 5b79 c7bb 46e3 593e
000000e0: 1eab 603c 129a 73bd fd1a 053b 82e4 abbc
000000f0: 9a5b 4a3e f034 b7bd 8018 e1bd 7926 13bd
00000100: b07e 713c 12c5 eb3d 2297 acbc a209 59bd
00000110: 8b3a d13d fd4a 6fbd d7f0 173c 5037 dfbd
00000120: 1163 403d afcd 563d 33ef a1bd 702c c93d
00000130: d545 143d 5b52 8f3d f28e 023d 14eb 043c
00000140: c7d1 0c3e 33bf 933d 2c85 64bc a825 213d
00000150: 8c71 803d 86a6 e33d 6c59 e63d e17b e8bc
00000160: b94b 5a3d 6f4b 05bd 0c64 703d 6ecb b53b
00000170: b729 4fbd 5828 8e3d 4b5e febd 95a9 03bd
00000180: c8b3 c23c 520d 8cbd 75f9 d1bd a58e 803d
00000190: 7271 62be dcce 31bc 0783 e63c 22ef c63c
000001a0: 1ec3 65be 17b6 62bd fa7d aa3c bf82 e93c
000001b0: 63f1 a9bd 5a68 1abe 3e35 013e 708c 413e
000001c0: 9f1b b23d dde6 2dbd 828d 78bb cb7a 203e
000001d0: 8440 403e 8a23 983d 8f70 0a3d 6d48 d83d
000001e0: 6c35 ddbd 5c5d ad3b 204c b1bc 838a 803b
000001f0: 3d0c 0e3e f29c 113d 40d3 863d e9e6 013e
00000200: 997a 0fbb 5923 5ebe c26f a1bd d54b 243d
00000210: ddee 9a3d 2b1b 44bd 2f37 87bc 5bae d83d
00000220: 8c83 983d 57bb d5bc ac1d ce3c 428f 4c3b
00000230: d5ec 313e 08dd 063d fb15 8fbd faa1 a73b
00000240: a165 013e d83f 9b3e a9a2 ca3c ca92 b9bd
00000250: 16c7 40bd 938c 153e 7e98 03be 2b37 ec3c
00000260: 8cd0 a8bd 4893 c2bc fdcf dabd d0f0 413c
00000270: eddd e23d 12e9 ab3d 60b4 74bd f9ab f5bd
00000280: dc7c 1abd e0d8 a93d 2e56 8c3d f4dc a0bd
00000290: ce54 bfbd 96ea ac3c 4973 283e 224b ec3c
000002a0: 7bb5 2ebe f2c5 52be 69cd ca3c 8fcb 0e3e
000002b0: 3d4c 1b3d b4f9 17be 4673 7cbe e33b 3cbe
000002c0: 3b63 a2bc 531c 003e 943f 773d dbe7 95be
000002d0: bb75 eabc 34fb 4a3a 617c d13d afb8 2a3e
000002e0: 7f0a e5bd 6ce8 353e 1874 153e c5b5 7a3d
000002f0: 5725 de3d c774 153e 2d00 313e 889d 8f3d
00000300: 0f5d e63d b250 113d 1617 e73d 1ae2 62be
00000310: 3f80 c0bd 9514 8c3d 0305 afbd 200f c1bc
00000320: 766c 78bd 4cb0 b0bd 52be 1fbe b125 7dbe
00000330: 72ac 95be 12a3 94bd 3807 ed3c 1ad4 cabc
00000340: c9d3 aebd b741 77be 778b af3c ba5a ba3d
00000350: 877b d93d 3e7c 913d 76d5 1dba b7c3 033d
00000360: 2b73 e33d 5f45 23bc fe86 e7bd 24e2 f9bc
00000370: 6597 483b 6515 1abc 67d2 213d 81b9 8cbb
00000380: 52f2 4a3d 3b62 1c3d 1686 3b3d 966a af3d
00000390: 9e0d 563d 8f3e 373e 1364 4c3e 8aa9 593e
000003a0: 375e 7b3d 8e53 cbbd 558f e33d f9c8 e03d
000003b0: 0d53 2e3e 9e3d 3c3e c200 09bb 947b 43bb
000003c0: 33a4 4abd 1409 c23b c5e9 92ba c702 12be
000003d0: 3d3d c6bc 4545 f23c df38 0b3d 6fe2 20be
000003e0: b8a0 8ebe a1e7 28be 2f49 313d e488 a63d
000003f0: e1ef 8c3d 07ae 12be 0b2e 15bd 3dc5 b43c

fc1.bias f4 [120]
0.13131088 -0.035201386 0.30082446 0.04579661 0.0042336774 0.007192962 -0.057320617 0.087646715
0.31012225 -0.010417885 -0.029420178 0.04548077 0.30552855 -0.02052869 -0.009407203 0.02442022
0.01571075 0.29350868 0.08505822 -0.042327963 0.08988312 -0.029399369 0.01558553 0.027186172
-0.0078941565 -0.12673777 -0.052330855 -0.27810004 0.021653889 0.058949932 0.35265017 -0.11328192
-0.048882224 0.01719333 0.49453855 -0.06501909 -0.1049302 0.2995113 0.37334242 -0.075464055
0.015165876 -0.01839147 0.25414598 0.020284262 -0.012576037 -0.3999 -0.012500608 0.09283367
-0.0053997017 -0.023117928 0.008323299 -0.033918753 -0.23794365 0.36817843 -0.06339619 0.010267636
-0.17131658 0.18167165 0.15086 -0.012389479 -0.036953438 0.005889541 0.25127324 0.011767161
0.29286972 0.015083522 -0.34347096 0.014224765 0.05173261 -0.07507109 0.14165527 -0.16583507
-0.023304164 -0.0022479491 0.05072514 -0.067845345 0.013979854 -0.16792245 -0.098992094 0.17193587
0.20940132 0.18269879 -0.038741447 0.27848572 0.1543641 -0.008919636 0.18083285 -0.07136577
-0.07051941 -0.0104441345 -0.053822137 0.012093307 -0.05697177 0.0029029686 0.3863831 0.22733012
-0.23339826 -0.05135034 0.41508386 0.064788826 0.20507428 -0.012834884 0.09815708 0.0054526953
-0.019426083 0.0053310883 0.07747031 0.041238658 0.15717672 -0.028578555 -0.08683001 -0.18706234
-0.07946057 -0.0707479 -0.044147994 0.05501185 0.28017765 0.33711168 -0.22408254 0.27069578
00000000: 5c76 063e 542f 10bd aa05 9a3e 3a95 3b3d
00000010: a9ba 8a3b f0b2 eb3b 06c9 6abd 1f80 b33d
00000020: 58c8 9e3e c7af 2abc 9602 f1bc 0b4a 3a3d
00000030: 3d6e 9c3e c92b a8bc ab20 1abc ea0c c83c
00000040: d5b3 803c c546 963e 0133 ae3d 1660 2dbd
00000050: a414 b83d f2d6 f0bc 735a 7f3c 89b5 de3c
00000060: 7e56 01bc 8cc7 01be e158 56bd 2163 8ebe
00000070: 7f63 b13c 7c75 713d 908e b43e 5a00 e8bd
00000080: ba38 48bd 07d9 8c3c 2834 fd3e bb28 85bd
00000090: a5e5 d6bd 8c59 993e bd26 bf3e e68c 9abd
000000a0: 4b7a 783c b5a9 96bc 6c1f 823e 2e2b a63c
000000b0: b90b 4ebc b1bf ccbe 5acf 4cbc 941f be3d
000000c0: fbef b0bb cf61 bdbc 725e 083c 64ee 0abd
000000d0: 80a7 73be e281 bc3e ddd5 81bd 9639 283c
000000e0: 9d6d 2fbe 2208 3a3e 0b7b 1a3e 3efd 4abc
000000f0: 7d5c 17bd 0dfd c03b e3a6 803e 0dcb 403c
00000100: 05f3 953e e020 773c 6ddb afbe fd0e 693c
00000110: 93e5 533d dfbe 99bd 140e 113e abd0 29be
00000120: 60e8 bebc 5452 13bb 2ac5 4f3d 80f2 8abd
00000130: c20b 653c ddf3 2bbe 5ebc cabd f50f 303e
00000140: 4d6d 563e 6415 3b3e 5aaf 1ebd ae95 8e3e
00000150: 9f11 1e3e aa23 12bc 3f2c 393e 3828 92bd
00000160: 7b6c 90bd e01d 2bbc 9a74 5cbd 0223 463c
00000170: 3b5b 69bd bb3f 3e3b 01d4 c53e 3ac9 683e
00000180: f4ff 6ebe bc54 52bd df85 d43e 01b0 843d
00000190: fefe 513e 6849 52bc 9406 c93d 86ac b23b
000001a0: 7323 9fbc 69b0 ae3b c1a8 9e3d dee9 283d
000001b0: eff2 203e 931d eabc efd3 b1bd 458d 3fbe
000001c0: 39bc a2bd 46e4 90bd 87d4 34bd 1b54 613d
000001d0: 7273 8f3e e799 ac3e e575 65be a398 8a3e

fc2.weight f4 [84, 120]
0.107035406 -0.011193732 -0.03267768 0.32729962 -0.051940452 0.1416583 0.008704612 -0.023294127
-0.15063459 0.0748963 0.026045162 -0.07489357 0.20636491 -0.040360805 -0.113570325 -0.0101817865
-0.040373966 0.15487859 -0.0434295 0.051912904 0.04406175 0.034040384 -0.07613647 0.08524608
-0.019281615 -0.023846507 0.0394206 -0.114358045 -0.022200203 -0.041231833 0.039319083 0.041799664
-0.02014972 0.07180133 0.053224955 0.00766014 -0.052403722 0.03687481 0.04985976 -0.10647198
-0.054306824 0.0264182 0.14762086 -0.05229813 -0.024127351 -0.07920777 -0.020100312 0.20283416
-0.04870077 -0.073536605 0.14026454 -0.08692641 -0.16575502 0.102216884 0.07492276 0.011880392
-0.03430042 0.013367941 -0.11338875 0.089705974 -0.03985007 0.07880279 -0.12237613 0.03587491
-0.030987045 -0.12584072 0.0018509348 0.0023436248 0.052275617 -0.050761342 0.08054999 -0.32979405
-0.17526822 0.09382849 0.08766304 0.029634496 -0.07157631 0.11305453 -0.0941779 0.115908496
0.047561876 0.01772498 -0.077302955 0.06196101 -0.03082199 -0.047675554 -0.04672667 -0.050636496
0.060650706 0.039361566 0.07179362 0.066960596 0.06352872 -0.090518795 0.009142787 0.1780568
-0.111799024 -0.04168049 0.043209545 0.03515219 0.06229208 -0.10000019 0.1287293 -0.054486264
-0.06445069 0.06934563 -0.2584005 0.04665607 0.02850847 -0.010458657 -0.055390056 -0.034200415
-0.022501849 0.032211717 0.01845875 0.013569003 0.0778579 0.3003415 -0.050130896 0.3972167
0.050711963 0.121910654 -0.06258235 0.045893975 -0.05529016 0.0070608933 -0.057894476 -0.110369414
0.041498438 -0.09148271 -0.11282631 0.057741657 0.18106239 -0.02166022 0.08848169 -0.024161967
0.024898747 0.09333272 0.068366684 0.06028402 0.016470857 -0.021759346 0.067166805 -0.138227
0.082413055 -0.13246697 -0.02496416 -0.113446504 0.07667002 0.027128065 0.0900527 -0.1025596
-0.020623647 0.11190923 -0.024259888 0.060271442 0.026346428 -0.00232283 0.23942062 0.04006177
0.15240753 0.01014735 0.071545646 0.0010667556 -0.038646538 -0.029106228 0.030628774 0.072595835
-0.06725256 0.046575494 0.09925546 -0.0009858385 -0.091281585 0.13683878 -0.07076378 0.023963815
0.06858496 -0.06399183 -0.04548896 0.17851157 -0.02551038 -0.062387254 0.04416919 0.054895848
-0.09269026 0.11166566 0.03319298 0.013863664 -0.033666562 -0.14434467 -0.13765614 0.0085871145
-0.16580941 -0.0524943 0.12288002 0.0044582323 0.059458293 0.06835575 -0.06734598 0.09458104
-0.04875586 0.14960137 -0.03327642 -0.027046353 -0.3337761 -0.0801405 -0.016854275 0.02708624
-0.05173542 0.031807117 0.019107739 -0.024056721 -0.08064691 0.005649709 0.25784054 0.16400366
-0.12770475 0.097569115 -0.06255862 0.0064533646 0.048892617 0.044922173 0.02867642 -0.16380565
-0.014565909 0.03729222 -0.064923085 -0.03738222 -0.20742926 -0.0436495 0.02375266 0.13960047
0.068576135 -0.052092623 -0.21619527 0.0149831185 -0.013538482 0.12324444 0.08344864 0.16159393
-0.11318537 0.082688294 0.043947425 -0.092437506 -0.1295378 0.045727998 -0.072288126 -0.111373976
-0.058009397 0.14870112 -0.02563263 8.972388e-05 0.06102674 -0.005112961 0.24440807 0.061130106
00000000: 6135 db3d ea65 37bc 08d9 05bd d193 a73e
00000010: 83bf 54bd e00e 113e ca9d 0e3c 53d3 bebc
00000020: f43f 1abe 3b63 993d aa5c d53c cd61 99bd
00000030: 5351 533e 5f51 25bd 8f97 e8bd 82d1 26bc
00000040: 2c5f 25bd 7e98 1e3e 22e3 31bd a0a2 543d
00000050: 187a 343d ee6d 0b3d 70ed 9bbd 7f95 ae3d
00000060: 7af4 9dbc c059 c3bc 7f77 213d 8d34 eabd
00000070: 33dd b5bc b6e2 28bd 0c0d 213d 2036 2b3d
00000080: 0711 a5bc 930c 933d 6902 5a3d e901 fb3b
00000090: 49a5 56bd 0a0a 173d bf39 4c3d fb0d dabd
000000a0: d570 5ebd fb6a d83c ec29 173e 9036 56bd
000000b0: b9a6 c5bc af37 a2bd 69a9 a4bc c2b3 4f3e
000000c0: 757a 47bd 5c9a 96bd 82a1 0f3e 7906 b2bd
000000d0: afbb 29be 1657 d13d 1b71 993d faa5 423c
000000e0: 997e 0cbd 3505 5b3c 5c38 e8bd c4b7 b73d
000000f0: d439 23bd 5b63 a13d 56a0 fabd 92f1 123d
00000100: 8bd8 fdbc 64dc 00be 119b f23a 8097 193b
00000110: f51e 563d 20eb 4fbd 65f7 a43d c4da a8be
00000120: 8379 33be 2729 c03d ae88 b33d 0bc4 f23c
00000130: 9a96 92bd 2289 e73d 58e0 c0bd 6f61 ed3d
00000140: 3ed0 423d fa33 913c 0351 9ebd d4ca 7d3d
00000150: 667e fcbc 7147 43bd 7764 3fbd 3768 4fbd
00000160: e06c 783d 9839 213d 8908 933d a322 893d
00000170: 581b 823d eb61 b9bd a1cb 153c 8654 363e
00000180: e3f6 e4bd 29b9 2abd 7efc 303d befb 0f3d
00000190: fb25 7f3d e6cc ccbd 9dd1 033e fd2c 5fbd
000001a0: b9fe 83bd 1505 8e3d 124d 84be 6f1a 3f3d
000001b0: 988a e93c c95a 2bbc afe0 62bd bc15 0cbd
000001c0: cc55 b8bc 6ff0 033d ce36 973c 8650 5e3c
000001d0: f673 9f3d 5cc6 993e 0e56 4dbd fd5f cb3e
000001e0: 59b7 4f3d 4bac f93d 2d2b 80bd 52fb 3b3d
000001f0: ef77 62bd 115f e73b c222 6dbd 5c09 e2bd
00000200: 44fa 293d 495b bbbd 7b11 e7bd 8482 6c3d
00000210: 6b68 393e c670 b1bc e335 b53d 51ef c5bc
00000220: 75f8 cb3c 3a25 bf3d d503 8c3d 60ec 763d
00000230: e4ed 863c a840 b2bc c08e 893d 618b 0dbe
00000240: 2dc8 a83d 6ca5 07be a381 ccbc a456 e8bd
00000250: 2c05 9d3d ad3b de3c 8d6d b83d c40a d2bd
00000260: ecf2 a8bc ab30 e53d acbc c6bc 30df 763d
00000270: 77d4 d73c 9f3a 18bb ae2a 753e cf17 243d
00000280: b810 1c3e 1241 263c 8686 923d 61d2 8b3a
00000290: d54b 1ebd 2f70 eebc 32e9 fa3c 20ad 943d
000002a0: b6bb 89bd f2c5 3e3d 7246 cb3d 4037 81ba
000002b0: d7f1 babd 771f 0c3e 9aec 90bd c34f c43c
000002c0: 4676 8c3d 260e 83bd a252 3abd bdcb 363e
000002d0: 25fb d0bc c789 7fbd c1ea 343d 78da 603d
000002e0: 64d4 bdbd f7b0 e43d 5df5 073d 6c24 633c
000002f0: f3e5 09bd 17cf 13be bbf5 0cbe f8b0 0c3c
00000300: f1c9 29be 4304 57bd 85a8 fb3d 5d16 923b
00000310: 8a8a 733d 19fe 8b3d b0ec 89bd b4b3 c13d
00000320: 3ab4 47bd 1a31 193e db4c 08bd 5090 ddbc
00000330: b3e4 aabe b420 a4bd fa11 8abc f6e3 dd3c
00000340: 85e8 53bd 2e48 023d d587 9c3c 9a12 c5bc
00000350: 352a a5bd 3221 b93b ad03 843e 93f0 273e
00000360: 09c5 02be 51d2 c73d bc1e 80bd bf76 d33b
00000370: a043 483d 5000 383d d0ea ea3c abbc 27be
00000380: daa5 6ebc babf 183d 65f6 84bd 191e 19bd
00000390: 5668 54be d1c9 32bd f094 c23c 6df3 0e3e
000003a0: a571 8c3d 135f 55bd 4b62 5dbe c17b 753c
000003b0: 82d0 5dbc 9567 fc3d 1fe7 aa3d e178 253e
000003c0: bbcd e7bd 7b58 a93d 3702 343d e04f bdbd
000003d0: 8fa5 04be 484d 3b3d cc0b 94bd 0a18 e4bd
000003e0: 439b 6dbd 1b45 183e 85fb d1bc 242a bc38
000003f0: 2df7 793d a08a a7bb 1c46 7a3e 9063 7a3d

fc2.bias f4 [84]
0.21357825 0.21214186 0.020033222 0.2962873 -0.030147204 0.0472294 0.14535283 0.06628486
-0.054091576 -0.043569125 -0.0057727518 0.014878213 -0.07439276 -0.11251516 0.20997092 0.056525998
0.246696 0.2292055 -0.08503972 -0.04552951 -0.04485281 0.05689957 0.12979189 0.063586466
-0.11412145 -0.030399393 -0.08218807 0.2964627 0.28202444 0.04613329 0.23689196 -0.0995646
0.23619938 -0.12578833 -0.027838254 0.21717714 -0.020353422 -0.23433875 0.12738425 0.08403754
0.08263696 0.42772403 0.20673922 0.080207594 -0.14688034 0.4369103 0.02982715 0.28694367
0.055126194 0.2984871 0.20610632 -0.069215916 -0.059896693 0.14293866 -0.14871006 0.18010332
-0.1106158 0.1967119 0.103863165 -0.08381156 0.24350487 0.4152554 -0.110830225 -0.08042989
-0.38069493 -0.056343805 0.0071214912 -0.046622187 0.3271138 0.21497987 0.22008263 -0.03926681
-0.01599559 0.019739449 0.23439948 -0.17665926 0.3210799 -0.09333005 -0.05197849 -0.02559538
0.36420026 0.21026777 0.058979746 -0.05179551
00000000: 42b4 5a3e b73b 593e b61c a43c f8b2 973e
00000010: 45f7 f6bc 9e73 413d 5fd7 143e 5bc0 873d
00000020: 218f 5dbd 8a75 32bd 5a29 bdbb c0c3 733c
00000030: 3b5b 98bd 596e e6bd 9e02 573e ce87 673d
00000040: e09d 7c3e d9b4 6a3e 4e29 aebd 277d 3abd
00000050: 95b7 37bd 860f 693d 2ae8 043e 9f39 823d
00000060: 82b8 e9bd 2608 f9bc 3852 a8bd f6c9 973e
00000070: 8265 903e 43f6 3c3d ce93 723e 86e8 cbbd
00000080: 40de 713e a8ce 00be 0d0d e4bc af63 5e3e
00000090: 38bc a6bc 7ff6 6fbe 0471 023e e01b ac3d
000000a0: 913d a93d a5fe da3e 72b3 533e e143 a43d
000000b0: cd67 16be b5b2 df3e 1158 f43c 48ea 923e
000000c0: 01cc 613d 4dd3 983e 890d 533e 13c1 8dbd
000000d0: 3c56 75bd 835e 123e 7347 18be 016d 383e
000000e0: 898a e2bd d86e 493e 36b6 d43d 65a5 abbd
000000f0: 5759 793e 5b9c d43e f5fa e2bd 6db8 a4bd
00000100: 72ea c2be c3c8 66bd 665b e93b e8f6 3ebd
00000110: 767b a73e af23 5c3e 575d 613e 3cd6 20bd
00000120: 2f09 83bc a0b4 a13c 6b06 703e 2ae6 34be
00000130: 9664 a43e d323 bfbd 66e7 54bd 67ad d1bc
00000140: 7578 ba3e 6f50 573e bf94 713d 8727 54bd

fc3.weight f4 [10, 84]
0.1025907 0.077783935 0.14034498 -0.010213817 -0.038748723 -0.04798284 0.0072340155 0.16109282
0.085462235 -0.033012927 0.075047106 0.10231917 -0.048362855 -0.08212386 -0.033074334 -0.13109997
-0.17641073 0.120347574 -0.0433373 -0.043969985 0.04459453 -0.04988395 -0.16590121 -0.0377885
-0.0015417456 0.152269 -0.015444411 0.07043569 -0.25593334 0.008750136 -0.1897266 0.03343007
0.15304421 -0.07811463 0.010246428 0.14683487 -0.08570412 0.115601145 -0.24061027 -0.010899985
-0.08600969 -0.20135184 -0.23290771 -0.040202145 0.019384617 -0.44631484 -0.098653965 -0.05086243
-0.021639016 -0.21829745 -0.22315156 0.060241196 -0.018657582 -0.20083757 0.1233152 -0.08722056
0.09064257 -0.11605794 0.17986639 0.102523066 0.02590551 0.08430444 -0.11802996 -0.0763779
0.19112173 0.02665763 -0.12704316 0.16590776 0.1469824 -0.15168639 -0.24804342 -0.039614726
-0.15610063 0.10561891 -0.06930073 0.013155679 0.087892905 0.07959703 -0.059368532 0.15352224
-0.27265283 0.120185964 -0.004218001 0.15198843 -0.20812841 0.11806508 0.15151946 -0.109862626
-0.14075558 -0.094877996 0.064716496 0.13057649 0.22283334 -0.019992484 0.021383582 -0.21094066
0.0495535 0.12657088 0.07219382 0.13864343 -0.23087227 0.034844667 0.089378744 0.039817832
-0.10209082 0.1425607 -0.25407004 -0.11732629 -0.027526898 0.0029786555 -0.16458334 -0.20128095
-0.13938822 -0.17097181 -0.16913396 0.038715508 -0.13851675 -0.11586549 -0.23747082 -0.18527763
0.1927515 0.11287761 -0.07335218 0.073648505 0.020650892 -0.031430144 -0.21599461 0.021574954
-0.11752181 0.022819595 -0.027066149 -0.1810205 -0.17268296 -0.024295729 -0.08344596 -0.095494255
0.061144643 0.10032305 -0.1052046 -0.07147825 -0.22782461 -0.06983897 -0.22231498 -0.22925095
-0.0061961333 -0.092580035 0.061649635 -0.066989 -0.032133106 0.015555276 -0.1337379 -0.056920517
-0.29580668 -0.23502937 0.16009526 0.029688042 0.20559503 0.15040922 0.01942185 0.14522621
-0.1392245 -0.052208487 0.11020851 0.023830516 -0.0012437822 -0.08393483 -0.19789974 -0.24446215
0.16624632 0.015201986 -0.07328142 0.028647741 -0.12443403 0.011723069 -0.0751355 -0.17857116
0.15224051 -0.008774839 -0.060211886 0.024382915 -0.14667071 -0.17753765 0.040470894 -0.15307464
0.103771694 -0.20539957 -0.018041011 -0.05923333 -0.09303663 0.031058444 -0.13699718 -0.18600301
0.079096474 0.15080966 -0.11157972 0.08950017 -0.08834315 0.09977679 0.10319236 0.014194269
-0.14725174 -0.07993943 0.06178166 0.15464817 0.0054518357 0.032381818 -0.07573213 -0.0111855045
0.12949933 0.11640965 0.20306958 -0.12464279 0.09085084 -0.06380694 -0.025021711 0.10729045
0.021372532 -0.09953451 0.18377082 -0.04585268 0.095378436 -0.12289748 -0.04814632 -0.019506257
0.14227177 0.1396193 -0.123903625 0.0030175522 -0.02842689 -0.056974996 -0.027538465 -0.030674335
0.13202421 -0.011154248 -0.21239816 0.11743463 0.09359199 -0.019223236 -0.016176835 -0.1886094
-0.14536221 -0.14967501 -0.17036845 -0.09655989 0.12680325 0.08822779 0.15873644 -0.07348315
0.038546216 -0.21463294 0.04697952 -0.05747719 0.008505625 -0.021435779 -0.08811445 0.17546324
00000000: 131b d23d 2f4d 9f3d 98b6 0f3e da57 27bc
00000010: fbb6 1ebd a889 44bd 520b ed3b 84f5 243e
00000020: d306 af3d 9038 07bd 4cb2 993d b78c d13d
00000030: 2118 46bd 8e30 a8bd f478 07bd 123f 06be
00000040: 04a5 34be ca78 f63d 7482 31bd df19 34bd
00000050: c1a8 363d 1d53 4cbd 02e2 29be 1dc8 1abd
00000060: 6614 caba 68ec 1b3e 8e0a 7dbc 9640 903d
00000070: b209 83be bb5c 0f3c b147 42be f8ed 083d
00000080: 9fb7 1c3e 90fa 9fbd a2e0 273c e15b 163e
00000090: a485 afbd 4bc0 ec3d 8a62 76be da95 32bc
000000a0: d925 b0bd 2d2f 4ebe 5c7f 6ebe 01ab 24bd
000000b0: 7dcc 9e3c 6183 e4be 170b cabd 2055 50bd
000000c0: 4e44 b1bc 5e89 5fbe d881 64be 79bf 763d
000000d0: c9d7 98bc 5da8 4dbe ae8c fc3d b1a0 b2bd
000000e0: d0a2 b93d c9af edbd e52e 383e 9df7 d13d
000000f0: cb37 d43c cea7 ac3d b1b9 f1bd 046c 9cbd
00000100: 6ab5 433e 1a61 da3c 9a17 02be b9e3 293e
00000110: 8e82 163e ad53 1bbe 18ff 7dbe 0d43 22bd
00000120: d8d8 1fbe ba4e d83d 8bed 8dbd eb8a 573c
00000130: 3201 b43d c503 a33d 6b2c 73bd ef34 1d3e
00000140: 2799 8bbe 0f24 f63d 2837 8abb dba2 1b3e
00000150: 9d1f 55be 1bcc f13d eb27 1b3e a8ff e0bd
00000160: 3b22 10be 654f c2bd 158a 843d d8b5 053e
00000170: 6c2e 643e 47c7 a3bc 9f2c af3c d400 58be
00000180: 9cf8 4a3d cc9b 013e 5ada 933d 8bf8 0d3e
00000190: c869 6cbe 48b9 0e3d 340c b73d 0618 233d
000001a0: fe14 d1bd 6ffb 113e 7815 82be c448 f0bd
000001b0: 1780 e1bc 8c35 433b 8988 28be 981c 4ebe
000001c0: c9bb 0ebe 3c13 2fbe 7431 2dbe 2794 1e3d
000001d0: 56d7 0dbe e34a edbd 8d2b 73be 6bb9 3dbe
000001e0: a660 453e 602c e73d ab39 96bd 07d5 963d
000001f0: 0f2c a93c e5bc 00bd b12d 5dbe f5bd b03c
00000200: 46af f0bd 29f0 ba3c d4b9 ddbc 705d 39be
00000210: cdd3 30be d607 c7bc b7e5 aabd 7e92 c3bd
00000220: ce72 7a3d 2c76 cd3d 8275 d7bd 3063 92bd
00000230: db4a 69be bc07 8fbd 8aa6 63be c3c0 6abe
00000240: ef08 cbbb 9a9a bdbd 5484 7c3d 8731 89bd
00000250: 019e 03bd 8edb 7e3c 97f2 08be 7d25 69bd
00000260: f973 97be 8aab 70be 03f0 233e 5634 f33c
00000270: 8187 523e e004 1a3e 921a 9f3c 2eb6 143e
00000280: de90 0ebe 91d8 55bd 00b5 e13d 3738 c33c
00000290: 6806 a3ba 06e6 abbd 3ba6 4abe 4954 7abe
000002a0: 7a3c 2a3e c011 793c 9214 96bd abae ea3c
000002b0: 45d7 febd 1d12 403c a4e0 99bd 5cdb 36be
000002c0: f0e4 1b3e 58c4 0fbc bda0 76bd aebe c73c
000002d0: d930 16be 6ecc 35be cfc4 253d 99bf 1cbe
000002e0: 4186 d43d 4454 52be beca 93bc a69e 72bd
000002f0: fd89 bebd 476e fe3c fd48 0cbe 9377 3ebe
00000300: 55fd a13d d96d 1a3e e983 e4bd dd4b b73d
00000310: 41ed b4bd c657 cc3d 8456 d33d 148f 683c
00000320: 29c9 16be 49b7 a3bd c40e 7d3d 175c 1e3e
00000330: 50a5 b23b cca2 043d 7219 9bbd 6843 37bc
00000340: 799b 043e 2f68 ee3d 79f1 4f3e b844 ffbd
00000350: 0110 ba3d 37ad 82bd 55fa ccbc 18bb db3d
00000360: 7315 af3c c0d8 cbbd 6b2e 3c3e 05d0 3bbd
00000370: c555 c33d adb1 fbbd 1335 45bd 96cb 9fbc
00000380: b1af 113e 5df8 0e3e 2fc1 fdbd 20c2 453b
00000390: 82df e8bc 9d5e 69bd 5998 e1bc be48 fbbc
000003a0: 5b31 073e 4fc0 36bc e77e 59be 9181 f03d
000003b0: 28ad bf3d 0c7a 9dbc 4885 84bc d322 41be
000003c0: d5d9 14be 6844 19be 1175 2ebe 31c1 c5bd
000003d0: b6d8 013e c6b0 b43d ce8b 223e 557e 96bd
000003e0: a3e2 1d3d bdc8 5bbe 996d 403d 346d 6bbd
000003f0: 2d5b 0b3c 169a afbc 5975 b4bd a3ac 333e

fc3.bias f4 [10]
-0.17461812 -0.18328038 -0.03192571 0.17676355 0.28567985 -0.09984516 -0.0030153773 -0.14139192
0.22844793 -0.15601282
00000000: 18cf 32be daad 3bbe 89c4 02bd 8101 353e
00000010: a144 923e 9f7b ccbd a39d 45bb 0bc9 10be
00000020: 41ee 693e d3c1 1fbe
